…
tionInfo":{"status":"ok","timestamp":1712567754343,"user_tz":-330,"elapsed":9,"user":{"displayName":"AIML-29 Sagar Das","userId":"01630099064197628041"}},"outputId":"39689871-74ac-4c1b-d35f-a9e4dcbb2bb7","colab":{"base_uri":"https://localhost:8080/"}},"execution_count":null,"outputs":[{"output_type":"stream","name":"stdout","text":["Model: \"sequential\"\n","_________________________________________________________________\n"," Layer (type)                Output Shape              Param #   \n","=================================================================\n"," conv2d (Conv2D)             (None, 26, 26, 96)        960       \n","                                                                 \n"," max_pooling2d (MaxPooling2  (None, 13, 13, 96)        0         \n"," D)                                                              \n","                                                                 \n"," conv2d_1 (Conv2D)           (None, 13, 13, 256)       614656    \n","                                                                 \n"," max_pooling2d_1 (MaxPoolin  (None, 6, 6, 256)         0         \n"," g2D)                                                            \n","                                                                 \n"," conv2d_2 (Conv2D)           (None, 6, 6, 384)         885120    \n","                                                                 \n"," conv2d_3 (Conv2D)           (None, 6, 6, 384)         1327488   \n","                                                                 \n"," conv2d_4 (Conv2D)           (None, 6, 6, 256)         884992    \n","                                                                 \n"," max_pooling2d_2 (MaxPoolin  (None, 2, 2, 256)         0         \n"," g2D)                                                            \n","                                                                 \n"," flatten (Flatten)           (None, 1024)              0         \n","                                                                 \n"," dense (Dense)               (None, 4096)              4198400   \n","                                                                 \n"," dense_1 (Dense)             (None, 4096)              16781312  \n","                                                                 \n"," dense_2 (Dense)             (None, 10)                40970     \n","                                                                 \n","=================================================================\n","Total params: 24733898 (94.35 MB)\n","Trainable params: 24733898 (94.35 MB)\n","Non-trainable params: 0 (0.00 Byte)\n","_________________________________________________________________\n"]}]}]}